…
      #+RESULTS:

      Here is a summary of the actual model, as generated directly by
      =model.summary= in Keras.

      #+BEGIN_SRC python :results output :session :tangle model.py :comments org :exports both
	CarND([160, 320, 3], ((80,20),(1,1))).summary()
      #+END_SRC

      #+RESULTS:
      #+begin_example
      Model: "sequential_2"
      _________________________________________________________________
      Layer (type)                 Output Shape              Param #   
      =================================================================
      Crop (Cropping2D)            (None, 60, 318, 3)        0         
      _________________________________________________________________
      Resize (AveragePooling2D)    (None, 60, 79, 3)         0         
      _________________________________________________________________
      Normalize (BatchNormalizatio (None, 60, 79, 3)         240       
      _________________________________________________________________
      Conv2D1 (Conv2D)             (None, 29, 39, 24)        672       
      _________________________________________________________________
      MaxPool1 (MaxPooling2D)      (None, 14, 19, 24)        0         
      _________________________________________________________________
      Conv2D2 (Conv2D)             (None, 12, 17, 36)        7812      
      _________________________________________________________________
      MaxPool2 (MaxPooling2D)      (None, 6, 8, 36)          0         
      _________________________________________________________________
      Conv2D3 (Conv2D)             (None, 4, 6, 48)          15600     
      _________________________________________________________________
      MaxPool3 (MaxPooling2D)      (None, 2, 3, 48)          0         
      _________________________________________________________________
      Dropout (Dropout)            (None, 2, 3, 48)          0         
      _________________________________________________________________
      Flatten (Flatten)            (None, 288)               0         
      _________________________________________________________________
      FC2 (Dense)                  (None, 100)               28900     
      _________________________________________________________________
      FC3 (Dense)                  (None, 50)                5050      
      _________________________________________________________________
      FC4 (Dense)                  (None, 10)                510       
      _________________________________________________________________
      Readout (Dense)              (None, 1)                 11        
      =================================================================
      Total params: 58,795
      Trainable params: 58,664
      Non-trainable params: 131
      _________________________________________________________________
      #+end_example

      And, here is a visualization of the model, as provided by the
      =plot_model= function in Keras.

      #+BEGIN_SRC python :results output :session :tangle model.py :comments org :exports both
…
