…
      #+END_SRC

      #+RESULTS:

      #+BEGIN_SRC python :results output :session :tangle model.py :comments org :exports code
      CarND([160, 320, 3], ((80,20),(1,1))).summary()
      #+END_SRC

      #+RESULTS:
      #+begin_example
      ____________________________________________________________________________________________________
      Layer (type)                     Output Shape          Param #     Connected to                     
      ====================================================================================================
      Crop (Cropping2D)                (None, 60, 318, 3)    0           cropping2d_input_14[0][0]        
      ____________________________________________________________________________________________________
      Resize (AveragePooling2D)        (None, 60, 79, 3)     0           Crop[0][0]                       
      ____________________________________________________________________________________________________
      Normalize (Lambda)               (None, 60, 79, 3)     0           Resize[0][0]                     
      ____________________________________________________________________________________________________
      Convolution2D1 (Convolution2D)   (None, 29, 39, 24)    672         Normalize[0][0]                  
      ____________________________________________________________________________________________________
      MaxPool1 (MaxPooling2D)          (None, 14, 19, 24)    0           Convolution2D1[0][0]             
      ____________________________________________________________________________________________________
      Convolution2D2 (Convolution2D)   (None, 12, 17, 36)    7812        MaxPool1[0][0]                   
      ____________________________________________________________________________________________________
      MaxPool2 (MaxPooling2D)          (None, 6, 8, 36)      0           Convolution2D2[0][0]             
      ____________________________________________________________________________________________________
      Convolution2D3 (Convolution2D)   (None, 4, 6, 48)      15600       MaxPool2[0][0]                   
      ____________________________________________________________________________________________________
      MaxPool3 (MaxPooling2D)          (None, 2, 3, 48)      0           Convolution2D3[0][0]             
      ____________________________________________________________________________________________________
      Dropout (Dropout)                (None, 2, 3, 48)      0           MaxPool3[0][0]                   
      ____________________________________________________________________________________________________
      Flatten (Flatten)                (None, 288)           0           Dropout[0][0]                    
      ____________________________________________________________________________________________________
      FC2 (Dense)                      (None, 100)           28900       Flatten[0][0]                    
      ____________________________________________________________________________________________________
      FC3 (Dense)                      (None, 50)            5050        FC2[0][0]                        
      ____________________________________________________________________________________________________
      FC4 (Dense)                      (None, 10)            510         FC3[0][0]                        
      ____________________________________________________________________________________________________
      Readout (Dense)                  (None, 1)             0           FC4[0][0]                        
      ====================================================================================================
      Total params: 58,544
      Trainable params: 58,544
      Non-trainable params: 0
      ____________________________________________________________________________________________________
      #+end_example

      #+BEGIN_SRC python :results output :session :tangle model.py :comments org :exports code
…
